train/cifar_net.pth (torch, 251167 bytes, 10 tensors)

conv1.weight f4 [6, 3, 5, 5]
-0.061804824 0.0007679698 0.112452336 0.14575922 0.07471138 -0.14621243 -0.012457738 0.057747018
0.15471448 0.0481202 -0.13134672 -0.047569066 0.06046181 0.19989896 0.09645139 -0.08927707
0.03560512 0.16472164 0.18129276 0.13232936 -0.03085576 0.12906921 0.02087395 0.10158847
0.13855435 -0.13365799 -0.18005408 -0.10961891 0.090976276 0.02813696 -0.3480485 -0.07923208
0.09801601 0.15247713 -0.023226308 -0.3304055 -0.21024902 0.06656506 0.13179687 0.056778587
-0.24567792 -0.13066535 0.04786901 0.0348502 -0.036335114 -0.21282838 -0.088654675 -0.10534549
0.06608287 0.047637608 -0.16803533 0.08818567 0.21353981 0.19788499 0.12842014 -0.04112898
-0.15306076 0.079548106 0.23771988 0.15909493 -0.2383327 -0.04721072 0.18068868 0.2965305
0.13620618 -0.035361055 -0.06596609 0.0966903 0.1640131 0.14672142 -0.08608965 -0.020062333
0.21722196 0.078102335 0.049780875 -0.08102021 -0.23599933 -0.16036342 -0.26851207 -0.27839622
-0.1729671 -0.38703743 -0.3999548 -0.37809727 -0.26461548 -0.018682044 0.034216613 0.12614731
0.13899058 0.016110957 0.11914175 0.25950953 0.26377556 0.36779988 0.29055628 0.36898014
0.28739095 0.21149705 0.09216158 0.085883915 0.029919125 -0.028584512 -0.15163203 -0.12548389
0.05331532 -0.13923371 -0.2504445 -0.29579616 -0.24911468 -0.15248354 -0.15103303 -0.054262217
0.067369506 -0.04317226 -0.0011528651 -0.071080804 0.22336295 0.20031948 0.04125076 -0.023048881
0.091564484 0.051660597 -0.0029493112 0.005706719 -0.071735986 0.048913013 0.12090288 0.014170503
0.07564224 0.029883884 -0.018918639 -0.14981833 -0.25179923 -0.05514756 -0.05963429 0.05255686
-0.023169884 0.09793594 0.077026695 0.112192914 -0.054151595 0.13512073 0.1973813 0.21309407
0.11172563 0.031275723 -0.05167882 -0.016357316 -0.06512311 -0.024963005 -0.08616599 -0.117277384
-0.09906803 -0.012576453 -0.14355831 -0.08739795 -0.04943278 -0.0029007287 -0.23499921 -0.06429266
-0.039205622 -0.20045887 -0.21916181 -0.16484481 -0.091832355 -0.06551407 -0.06880642 -0.075397514
-0.20295642 -0.18293013 -0.014162587 -0.14910278 -0.073538266 -0.2090908 -0.21014774 -0.048801668
-0.024934186 -0.013099172 -0.03537468 -0.09470915 -0.041625403 -0.004264371 0.096851125 0.022127608
0.040517356 -0.09513314 -0.114942215 0.06504437 0.07230856 -0.115159936 -0.14300732 -0.051862273
-0.052070007 0.05968958 -0.022061141 -0.07348029 -0.038438544 -0.096910514 -0.020564027 -0.05750165
0.30387476 0.3274482 0.33434707 0.23957166 0.17954549 0.21478993 0.18553762 0.13818738
0.29835984 0.13241433 0.08881454 0.28160796 0.2911078 0.09606245 0.10567866 0.1751337
0.25220156 0.08813987 0.1743232 0.19345759 0.04482983 0.112550065 0.12375108 0.0531527
0.080336355 0.28473395 0.22875576 0.3766756 0.3666533 0.2386663 0.26526907 0.40655226
0.50706726 0.43569747 0.40688604 0.12560007 0.1379973 0.18857764 0.2683988 0.035152826
-0.08702137 -0.037164874 -0.25693995 -0.26267862 -0.1800943 -0.2752554 -0.23807496 -0.21757926
-0.20152049 -0.15059264 -0.24340016 -0.043907955 -0.0899879 -0.26668152 -0.2562028 -0.2786301
00000000: 0e27 7dbd 9551 493a 694d e63d e841 153e
00000010: 4802 993d b6b8 15be 8a1b 4cbc 2388 6c3d
00000020: 796d 1e3e b019 453d c17f 06be c8d7 42bd
00000030: cea6 773d 50b2 4c3e 4e88 c53d e5d6 b6bd
00000040: add6 113d caac 283e cfa4 393e 5981 073e
00000050: 38c5 fcbc b82a 043e d9ff aa3c 9e0d d03d
00000060: 31e1 0d3e a4dd 08be 1960 38be e17f e0bd
00000070: c551 ba3d 7b7f e63c 6a33 b2be 6e44 a2bd
00000080: 9ebc c83d f722 1c3e 1945 bebc e92a a9be
00000090: 854b 57be 4353 883d c2f5 063e aa90 683d
000000a0: fe92 7bbe 23cd 05be 4c12 443d 15bf 0e3d
000000b0: 21d4 14bd afef 59be 9590 b5bd 60bf d7bd
000000c0: 7556 873d a71f 433d 7411 2cbe b09a b43d
000000d0: 2eaa 5a3e 5da2 4a3e 9280 033e dd76 28bd
000000e0: f6bb 1cbe 1eea a23d d76c 733e c8e9 223e
000000f0: 7d0d 74be 0760 41bd 7406 393e d8d2 973e
00000100: a279 0b3e c1d6 10bd 3b19 87bd 9005 c63d
00000110: 0df3 273e 243e 163e c54f b0bd c359 a4bc
00000120: 6f6f 5e3e 1ef4 9f3d 08e7 4b3d eded a5bd
00000130: cfa9 71be 4f36 24be 6a7a 89be f389 8ebe
00000140: 4a1e 31be c529 c6be e0c6 ccbe f795 c1be
00000150: ae7b 87be 160b 99bc b826 0c3d c32c 013e
00000160: 8c53 0e3e 20fb 833c 9700 f43d 6fde 843e
00000170: 970d 873e 4450 bc3e cbc3 943e f7ea bc3e
00000180: e824 933e af92 583e 36bf bc3d e8e3 af3d
00000190: f418 f53c 112a eabc 6d45 1bbe d97e 00be
000001a0: 2a61 5a3d 4893 0ebe 433a 80be 9872 97be
000001b0: eb17 7fbe a524 1cbe 67a8 1abe 0f42 5ebd
000001c0: 06f9 893d 65d5 30bd bc1b 97ba d092 91bd
000001d0: 42b9 643e 8d20 4d3e 8ff6 283d 02d1 bcbc
000001e0: 2986 bb3d 109a 533d 3b49 41bb 6eff ba3b
000001f0: 51ea 92bd 0359 483d ee9b f73d 662b 683c
00000200: 52ea 9a3d 0ccf f43c 43fb 9abc fa69 19be
00000210: d4eb 80be 68e2 61bd 1643 74bd dd45 573d
00000220: c5ce bdbc a392 c83d 2cc0 9d3d 66c5 e53d
00000230: 10ce 5dbd 175d 0a3e 531e 4a3e 5535 5a3e
00000240: 68d0 e43d f91a 003d 2cad 53bd c7ff 85bc
00000250: 445f 85bd 377f ccbc cb77 b0bd 202f f0bd
00000260: 2ee4 cabd 780d 4ebc f300 13be b2fd b2bd
00000270: 077a 4abd 271a 3ebb a2a3 70be dfab 83bd
00000280: 1396 20bd 1745 4dbe f46b 60be 14cd 28be
00000290: 9a12 bcbd 3e2c 86bd 61ea 8cbd 036a 9abd
000002a0: cfd3 4fbe 0952 3bbe 320a 68bc 66ae 18be
000002b0: 3b9b 96bd e61b 56be f830 57be 42e4 47bd
000002c0: c742 ccbc e99d 56bc 0ae5 10bd dff6 c1bd
000002d0: 667f 2abd 23bc 8bbb e259 c63d f544 b53c
000002e0: 87f5 253d 2ad5 c2bd d366 ebbd fc35 853d
000002f0: 8316 943d f9d8 ebbd 8370 12be 896d 54bd
00000300: 5c47 55bd 107d 743d 91b9 b4bc d67c 96bd
00000310: bc71 1dbd 0579 c6bd e475 a8bc da86 6bbd
00000320: 7995 9b3e 4aa7 a73e 8a2f ab3e 4652 753e
00000330: c6da 373e e4f1 5b3e 93fd 3d3e fe80 0d3e
00000340: 9fc2 983e 9f97 073e 66e4 b53d eb2e 903e
00000350: 150c 953e 64bc c43d 0e6e d83d 4056 333e
00000360: 9020 813e ad82 b43d c881 323e bf19 463e
00000370: 7c9f 373d a680 e63d 3571 fd3d a5b6 593d
00000380: 6387 a43d a6c8 913e f33e 6a3e a0db c03e
00000390: fbb9 bb3e f064 743e 59d1 873e 9e27 d03e
000003a0: 29cf 013f bd13 df3e 5e53 d03e 4e9d 003e
000003b0: 2a4f 0d3e 7f1a 413e 916b 893e 69fc 0f3d
000003c0: 4338 b2bd 323a 18bd a28d 83be d07d 86be
000003d0: a46a 38be 47ee 8cbe ecc9 73be 19cd 5ebe
000003e0: 635b 4ebe f534 1abe e43d 79be d4d8 33bd
000003f0: 934b b8bd 7b8a 88be 032d 83be 9ba8 8ebe

conv1.bias f4 [6]
0.04488142 -0.31873104 0.61585724 -0.40815243 -0.28384295 -0.3552197
00000000: 94d5 373d b730 a3be d2a8 1d3f 5bf9 d0be
00000010: dd53 91be 5bdf b5be

conv2.weight f4 [16, 6, 5, 5]
-0.08210876 -0.03917859 -0.12749599 -0.14407499 -0.010665912 -0.088815525 -0.101640895 -0.026274174
-0.14327283 -0.012658963 -0.14354442 -0.038624886 -0.09348319 -0.034682345 0.012540735 -0.062013905
-0.0071819006 -0.108287156 0.028811188 0.0924817 -0.07978565 -0.00020418502 -0.014028965 0.14699095
0.11017626 -0.030634103 -0.099584006 -0.08521937 -0.0074594887 0.0050855186 -0.035483133 -0.043301806
-0.063911095 -0.07322259 -0.14337227 0.09660809 0.09486218 -0.07161171 -0.02934646 -0.047481313
0.018765863 -0.053480316 0.05402558 0.01637284 0.1599537 -0.047463704 -0.054800607 0.0074993134
0.11718293 0.18497378 -0.026610486 -0.05173804 0.047281668 0.18697819 0.15983714 -0.15172005
-0.17903882 0.06329683 0.17384587 0.20849688 -0.2215745 -0.14391457 -0.033669554 0.18338105
0.33770272 -0.2966381 -0.28627753 -0.0048652827 0.24412282 0.408335 -0.2787147 -0.271941
-0.06920157 0.288242 0.41010466 0.034855794 -0.05162982 0.053443246 0.018099966 -0.0108460905
0.028541543 -0.07372611 -0.048104435 -0.01646237 0.02294936 0.001777119 -0.04710526 -0.06743862
-0.1091454 -0.051764123 -0.109680966 -0.08462998 -0.077186845 -0.022552973 -0.025676964 -0.08216781
0.037871223 -0.08346342 0.0237961 0.038425744 -0.13341773 -0.06707142 -0.067593105 -0.02983335
0.106953464 -0.14741 -0.068978935 -0.018228635 0.034610018 0.0010784521 -0.013867254 0.03191346
0.017135942 0.025915736 -0.0064404425 -0.04044216 -0.054545864 0.1045867 0.09334209 0.036752224
-0.016590675 0.14353278 0.18061468 0.13277486 0.16250218 -0.03724903 -0.14472531 -0.066793084
-0.13510397 -0.1615163 -0.046608336 -0.13093472 -0.123671554 -0.2082139 -0.21024624 -0.1431835
-0.20422196 -0.13747339 -0.07450177 -0.1913185 -0.012005802 -0.03909446 -0.11616621 -0.13708223
-0.13714841 -0.039572503 0.030674743 -0.09561617 -0.0061502396 -0.046911497 -0.16169776 -0.14727095
-0.22883232 -0.037702635 -0.065061875 -0.15782858 -0.09221913 -0.16292182 -0.1951272 -0.15189189
-0.120310426 -0.1690299 -0.27292538 -0.148264 -0.1312767 -0.09229758 -0.26107547 -0.24252693
-0.2528148 0.12202654 -0.26373553 -0.228885 -0.2717779 -0.013192506 0.22220649 0.03961712
-0.0168869 0.000988824 0.06224296 0.011465109 0.036923323 -0.011129703 0.10804384 -0.051773235
-0.047138866 0.045764398 -0.002003096 -0.037617534 0.120156504 0.107860304 0.029562967 -0.027651507
0.0837705 0.13627511 0.06434227 -0.08578287 0.040273886 0.1487833 0.16277203 0.06406426
0.038955305 0.09310985 0.0033220835 0.045148633 0.114263766 0.11816054 -0.047191907 0.07049126
0.038462576 0.028011683 0.12113535 0.10742069 0.13708094 0.12091428 -0.005989388 0.12920956
0.14922996 0.09167835 -0.0649188 -0.16986807 0.20908974 0.1513902 0.052229453 -0.1405681
0.00799827 0.14393973 -0.039365463 -0.011028468 0.13297251 0.19736943 -0.06894908 -0.004424086
-0.074777596 0.006367033 0.2330381 -0.004329248 -0.006406186 0.092743024 0.15273121 -0.05230298
-0.029827032 0.10108498 0.063345194 -0.0742294 -0.16878441 0.080491036 -0.021396015 0.0030946797
-0.0679441 -0.14701514 -0.03151961 -0.07056164 -0.14745834 -0.1448192 0.061076622 0.02915266
00000000: a328 a8bd bb79 20bd 4f8e 02be 6588 13be
00000010: 14c0 2ebc eae4 b5bd 1a29 d0bd f03c d7bc
00000020: 1db6 12be 8a67 4fbc 4ffd 12be 2135 1ebd
00000030: 1d74 bfbd 130f 0ebd a877 4d3c 4b02 7ebd
00000040: 2656 ebbb a8c5 ddbd 7105 ec3c 0c67 bd3d
00000050: a966 a3bd 801a 56b9 bed9 65bc cc84 163e
00000060: 17a4 e13d 5ff4 fabc b3f2 cbbd 7e87 aebd
00000070: ba6e f4bb 6ca4 a63b c356 11bd 3c5d 31bd
00000080: d2e3 82bd baf5 95bd 2ed0 12be 76da c53d
00000090: 1a47 c23d 29a9 92bd fd67 f0bc c47b 42bd
000000a0: deba 993c 2d0e 5bbd ed49 5d3d 5620 863c
000000b0: e7ca 233e 4d69 42bd 9a76 60bd cdbc f53b
000000c0: 9bfd ef3d c469 3d3e 3cfe d9bc 44eb 53bd
000000d0: 6caa 413d 3677 3f3e 59ac 233e 805c 1bbe
000000e0: f455 37be c5a1 813d a704 323e 3580 553e
000000f0: 6de4 62be 575e 13be 16e9 09bd 3ec8 3b3e
00000100: 5fe7 ac3e f3e0 97be f892 92be f36c 9fbb
00000110: 55fb 793e 4911 d13e b1b3 8ebe da3b 8bbe
00000120: 8db9 8dbd 7594 933e 3df9 d13e f3c4 0e3d
00000130: ca79 53bd 4ee7 5a3d 6146 943c cdb3 31bc
00000140: f4cf e93c b7fd 96bd 2809 45bd 18dc 86bc
00000150: 4c00 bc3c 38ee e83a 72f1 40bd 421d 8abd
00000160: a087 dfbd 9e06 54bd 6aa0 e0bd 7c52 adbd
00000170: 2314 9ebd 03c1 b8bc 7f58 d2bc 9947 a8bd
00000180: db1e 1b3d dfee aabd 0af0 c23c 5064 1d3d
00000190: a89e 08be be5c 89bd 416e 8abd 1265 f4bc
000001a0: 6b0a db3d a6f2 16be d444 8dbd 3854 95bc
000001b0: 3cc3 0d3d d95a 8d3a 7b33 63bc b0b7 023d
000001c0: ad60 8c3c 3d4d d43c 590a d3bb aea6 25bd
000001d0: 7c6b 5fbd 8d31 d63d 232a bf3d 8089 163d
000001e0: 2be9 87bc 42fa 123e 0ef3 383e 22f6 073e
000001f0: f966 263e 7092 18bd df32 14be d0ca 88bd
00000200: b258 0abe 8764 25be 62e8 3ebd c013 06be
00000210: 8347 fdbd 0636 55be ca4a 57be b29e 12be
00000220: 901f 51be d3c5 0cbe 6294 98bd ffe8 43be
00000230: fcb3 44bc 8321 20bd 8de8 edbd 495f 0cbe
00000240: a270 0cbe c716 22bd 9949 fb3c 69d2 c3bd
00000250: f387 c9bb 4526 40bd 1994 25be 32ce 16be
00000260: 0553 6abe 146e 1abd 293f 85bd d19d 21be
00000270: 62dd bcbd fad4 26be 6dcf 47be 8c89 1bbe
00000280: 5065 f6bd 2d16 2dbe e0bc 8bbe 85d2 17be
00000290: 666d 06be 8306 bdbd afab 85be fb58 78be
000002a0: f170 81be 0de9 f93d 5808 87be d460 6abe
000002b0: 7926 8bbe 6125 58bc 198a 633e 9045 223d
000002c0: 6556 8abc 6d9b 813a 79f2 7e3d 27d8 3b3c
000002d0: e93c 173d 5c59 36bc 1746 dd3d 2c10 54bd
000002e0: af14 41bd 7373 3b3d 6046 03bb d814 1abd
000002f0: 9d14 f63d dde5 dc3d 092e f23c 6a85 e2bc
00000300: de8f ab3d b48b 0b3e e1c5 833d eeae afbd
00000310: 3bf6 243d a65a 183e b6ad 263e 1f34 833d
00000320: 998f 1f3d 61b0 be3d 50b7 593b c6ed 383d
00000330: 1f03 ea3d 27fe f13d 4d4c 41bd b95d 903d
00000340: ef8a 1d3d c278 e53c cf15 f83d 61ff db3d
00000350: f25e 0c3e e8a1 f73d a142 c4bb 834f 043e
00000360: bdcf 183e dcc1 bb3d 26f4 84bd e5f1 2dbe
00000370: 9f1b 563e 0806 1b3e 8dee 553d 16f1 0fbe
00000380: 2d0b 033c f064 133e ae3d 21bd bfb0 34bc
00000390: f229 083e 361b 4a3e 2d35 8dbd ecf7 90bb
000003a0: ff24 99bd 8ba2 d03b 8aa1 6e3e 5ddc 8dbb
000003b0: fcea d1bb 0ef0 bd3d 9265 1c3e a63b 56bd
000003c0: d257 f4bc a405 cf3d 20bb 813d 9505 98bd
000003d0: d2d5 2cbe 7cd8 a43d b246 afbc 1cd0 4a3b
000003e0: 4726 8bbd 238b 16be b51a 01bd 9f82 90bd
000003f0: 52ff 16be 7c4b 14be 7b2b 7a3d 8fd1 ee3c

conv2.bias f4 [16]
0.5420357 -0.4207893 -0.26737663 -0.3357069 -0.0416009 0.40744048 -0.116413005 -0.05653344
-0.9159418 0.8597023 0.36080074 0.0029188092 0.29055208 -0.47332647 -0.29424334 0.31423151
00000000: dac2 0a3f b271 d7be 97e5 88be c6e1 abbe
00000010: b565 2abd 0a9c d03e f169 eebd 9c8f 67bd
00000020: 297b 6abf 7315 5c3f e0ba b83e 7e49 3f3b
00000030: 3ec3 943e d957 f2be 10a7 96be f4e2 a03e

fc1.weight f4 [120, 400]
-0.046125777 0.04220176 -0.057432108 -0.07119591 0.037896153 -0.054242942 -0.01428137 0.005106359
-0.074557394 0.012881097 0.011789385 -0.047963053 0.016400632 -0.09185028 -0.00892521 -0.013104569
-0.010781925 -0.047701474 -0.004134677 0.031172115 0.036886133 0.0047413227 -0.0075927116 -0.004136377
0.006782337 0.048152532 -0.011541866 -0.018622028 -0.0159678 0.022741541 0.010789717 -0.090113565
-0.11336745 -0.02708 -0.025862131 -0.004008821 -0.00460187 -0.019885082 -0.085982196 -0.03429256
-0.010807132 -0.04810441 -0.052669767 -0.08866445 -0.10489444 -0.054123227 -0.046698887 0.00070523616
-0.040344328 -0.027633037 -0.037389528 0.106014706 0.083427876 0.0981642 0.045885667 0.056899406
-0.011110299 -0.0023344578 0.078607276 0.072414905 0.051511478 -0.038430735 0.0069059134 0.021973485
0.06025047 -0.04197978 0.010567957 0.07112626 0.070632264 0.11100392 -0.04787627 -0.12599811
0.0148172295 -0.015575187 -0.0007662817 -0.026624924 -0.0041371547 -0.03245186 -0.0046346057 -0.008255022
-0.076014325 -0.0670715 -0.050995715 -0.006897261 -0.023230951 -0.11062209 -0.036510102 -0.053192794
-0.07571399 -0.05003178 -0.063051306 -0.0054319645 0.012396184 0.044318408 0.03559815 0.00017240935
-0.01611035 -0.031048445 -0.0032468645 -0.055046633 0.03524481 0.029156381 0.07623371 0.023118522
-0.012010446 0.06743884 -0.006879071 -0.05750905 -0.0067602666 -0.054069538 0.0023869 0.06728011
-0.020907495 0.019517457 -0.032834284 0.05541236 -0.03859028 -0.097204514 0.007029132 -0.0032415567
0.055046286 0.013536332 -0.034940705 0.016023688 0.019373033 -0.022024414 0.005209969 -0.03832029
-0.050577212 0.048435383 0.03137389 -0.027614238 -0.099709265 -0.097876705 0.028260833 0.04371721
-0.0025187568 -0.051370762 0.011690747 -0.06671928 0.011603236 0.036330264 -0.03938936 -0.008524526
-0.02429773 -0.007999396 0.027043868 -0.006851522 -0.031887356 0.03542724 0.03773651 0.060766026
0.012064576 0.07323029 0.098548055 -0.008523923 -0.036478434 -0.010793925 -0.047980413 0.010352925
-0.014621906 -0.03828211 -0.060479414 -0.024987077 -0.009858361 -0.002069801 0.03638652 0.02366222
0.035527766 -0.051518798 -0.0013568881 -0.0024212515 -0.014263096 0.02103784 0.0005907538 0.030834159
0.018027706 0.03862323 0.037805002 -0.04368783 0.06007113 0.025457894 0.039102964 -0.03991923
-0.05926751 -0.013228407 0.0076076826 -0.05738755 -0.08264412 -0.09483779 -0.094968304 -0.07684544
-0.046909295 -0.09449615 -0.06513045 -0.034669593 -0.13159984 -0.015171022 -0.09967024 -0.015088752
0.010683245 -0.013372973 0.00988104 0.10798349 0.030623233 0.015141226 -0.03819429 -0.033317897
0.09563597 0.039577316 0.017871397 0.018266823 0.06640391 0.098759346 -0.013976519 -0.050570745
-0.022763109 0.047432188 0.039008982 0.037733495 -0.037790712 -0.0030054455 -0.026034938 0.049714044
-0.052229576 0.051014163 0.020481706 0.049984746 -0.019781666 -0.049723122 0.060374696 -0.02428659
0.0875647 -0.02191354 -0.07731729 0.086584546 0.053068075 -0.009766741 0.047979508 -0.00020352707
0.001396455 0.024954466 0.022642596 0.0071304096 0.03441747 0.030571327 0.03245753 0.08342544
-0.029014438 0.0058171707 -0.0012640494 -0.004330883 -0.0020214114 -0.11019147 -0.0012266228 -0.05138723
00000000: 62ee 3cbd c1db 2c3d ee3d 6bbd 29cf 91bd
00000010: ff38 1b3d d92d 5ebd 68fc 69bc 3e53 a73b
00000020: 8cb1 98bd 3d0b 533c 4428 413c e874 44bd
00000030: 9e5a 863c 001c bcbd 0b3b 12bc 8cb4 56bc
00000040: aca6 30bc 9f62 43bd 2f7c 87bb aa5c ff3c
00000050: ea15 173d 195d 9b3b 48cc f8bb 728a 87bb
00000060: 5e3e de3b 973b 453d 181a 3dbc 398d 98bc
00000070: e7ce 82bc 784c ba3c 5ac7 303c 768d b8bd
00000080: 322d e8bd e0d6 ddbc d2dc d3bc 6e5c 83bb
00000090: 49cb 96bb 0ae6 a2bc 6f17 b0bd 5b76 0cbd
000000a0: 6610 31bc 2109 45bd 41bc 57bd b595 b5bd
000000b0: e5d2 d6bd 51b0 5dbd 5547 3fbd 99df 383a
000000c0: 1840 25bd ae5e e2bc c325 19bd 3d1e d93d
000000d0: 3cdc aa3d 500a c93d 9cf2 3b3d 5a0f 693d
000000e0: f907 36bc b4fd 18bb dafc a03d 444e 943d
000000f0: b3fd 523d 8c69 1dbd 004b e23b bd01 b43c
00000100: 32c9 763d fdf2 2bbd 3925 2d3c a5aa 913d
00000110: a6a7 903d 0656 e33d e819 44bd a605 01be
00000120: f7c3 723c 122f 7fbc 4be0 48ba 831c dabc
00000130: f890 87bb 3eec 04bd e4dd 97bb 1240 07bc
00000140: 66ad 9bbd c85c 89bd e2e0 50bd 6b02 e2bb
00000150: d64e bebc d68d e2bd 9e8b 15bd b0e0 59bd
00000160: f00f 9bbd 20ee 4cbd 0b21 81bd 9ffe b1bb
00000170: 5d19 4b3c 3887 353d 5ecf 113d c8c8 3439
00000180: daf9 83bc 4f59 febc 59c9 54bb 9478 61bd
00000190: dd5c 103d 5dd9 ee3c 6b20 9c3d 0e63 bd3c
000001a0: 76c7 44bc 601d 8a3d d469 e1bb 9c8e 6bbd
000001b0: 3a85 ddbb 0578 5dbd 896d 1c3b 28ca 893d
000001c0: 3246 abbc 13e3 9f3c 3e7d 06bd 12f8 623d
000001d0: d710 1ebd 2913 c7bd a254 e63b 4c70 54bb
000001e0: 3778 613d 7ec7 5d3c fc1d 0fbd 1c44 833c
000001f0: 32b4 9e3c 8b6c b4bc 63b8 aa3b bdf5 1cbd
00000200: 0d2a 4fbd 2e64 463d e881 003d 4137 e2bc
00000210: 5f34 ccbd 9573 c8bd 4383 e73c d110 333d
00000220: ba11 25bb 266a 52bd 8c8a 3f3c 1ea4 88bd
00000230: 801b 3e3c 0bcf 143d bd56 21bd 74aa 0bbc
00000240: 080c c7bc e60f 03bc 1a8b dd3c bb82 e0bb
00000250: 519c 02bd 271c 113d 9991 1a3d cce5 783d
00000260: 80aa 453c c3f9 953d 90d3 c93d eda7 0bbc
00000270: 696a 15bd 01d9 30bc 1c87 44bd 519f 293c
00000280: b890 6fbc b4cd 1cbd 43b9 77bd b3b1 ccbc
00000290: f784 21bc 80a5 07bb 080a 153d 46d7 c13c
000002a0: 9085 113d 6005 53bd 9cd9 b1ba dcad 1ebb
000002b0: c3af 69bc 8c57 ac3c d1dc 1a3a eb97 fc3c
000002c0: d7ae 933c 6433 1e3d 6bd9 1a3d 03f2 32bd
000002d0: 250d 763d 138d d03c 6e2a 203d 5982 23bd
000002e0: 7dc2 72bd f6bb 58bc de49 f93b 350f 6bbd
000002f0: 5241 a9bd 513a c2bd be7e c2bd 2461 9dbd
00000300: f623 40bd 3387 c1bd 1d63 85bd b401 0ebd
00000310: 1cc2 06be e18f 78bc e91f ccbd d036 77bc
00000320: c708 2f3c 501a 5bbc 16e4 213c 7326 dd3d
00000330: 93dd fa3c e812 783c 9e71 1cbd 5978 08bd
00000340: cbdc c33d d31b 223d 0967 923c 4ea4 953c
00000350: c6fe 873d 5742 ca3d c5fd 64bc 4523 4fbd
00000360: b379 babc 4148 423d e2c7 1f3d 708e 1a3d
00000370: 6fca 1abd 02f7 44bb 3947 d5bc f4a0 4b3d
00000380: aeee 55bd 3af4 503d 40c9 a73c cebc 4c3d
00000390: 290d a2bc 79aa 4bbd 754b 773d acf4 c6bc
000003a0: 1f55 b33d 0684 b3bc 8758 9ebd 3d53 b13d
000003b0: e95d 593d ae04 20bc 2986 443d e269 55b9
000003c0: 4109 b73a 4f6d cc3c f77c b93c 36a6 e93b
000003d0: 55f9 0c3d b870 fa3c 30f2 043d f5da aa3d
000003e0: b0af edbc f79d be3b 76ae a5ba 14ea 8dbb
000003f0: a879 04bb 11ac e1bd a2c6 a0ba 6b7b 52bd

fc1.bias f4 [120]
-0.07984348 -0.15793782 0.06461383 0.08818603 -0.2268565 -0.031638663 0.079342626 0.009539687
0.10630241 0.0564619 -0.037667487 -0.04847027 0.03487387 0.09278478 0.15088227 0.054455973
0.050066903 -0.05863238 -0.06786127 0.052213605 0.063728675 0.042009518 0.069332175 0.007523127
0.011326386 0.026975159 -0.06042916 0.056941133 0.024706688 0.01830165 0.0736561 -0.044416573
0.024664486 0.034420565 -0.04947002 -0.018483996 -0.013471076 0.054060914 0.092819184 0.005610618
0.10036586 -0.049277134 -0.0070090014 0.015600696 0.03288415 -0.095088504 0.029004043 0.06341995
-0.14814267 0.034892853 0.021546453 0.015073718 -0.09311092 -0.029295873 0.009325885 -0.011538843
-0.00680049 0.058719005 0.014237896 0.10974198 0.25381896 -0.0413071 -0.094863944 0.047988426
0.06635866 -0.033403363 -0.058165472 -0.0805771 0.07571684 -0.121816516 0.032489892 0.044255793
0.105144076 -0.049471572 0.11839425 0.15422885 -0.007873438 0.019498916 0.04523141 0.027824732
-0.029853186 0.03889854 0.114821956 0.17705165 0.2809059 0.07696588 -0.026920779 0.01727715
0.20270163 0.04761567 -0.07734637 -0.10797898 -0.08869797 0.1065509 -0.05619428 0.12653309
0.028646203 0.17879929 0.022927266 -0.05339585 0.013160884 0.031435788 -0.0017848776 -0.16395135
0.24527608 -0.0018780953 0.12792744 -0.0026379835 -0.028181212 0.12245391 -0.17706291 0.15473579
0.011018136 -0.05356134 0.0050594476 0.011541965 0.25829363 -0.055034373 -0.0012502457 -0.028220406
00000000: fa84 a3bd 74ba 21be 4154 843d e19a b43d
00000010: 124d 68be 8b97 01bd 637e a23d 594c 1c3c
00000020: 14b5 d93d 9844 673d 3949 1abd c388 46bd
00000030: e7d7 0e3d f205 be3d e280 1a3e 3a0d 5f3d
00000040: f412 4d3d 8228 70bd d9fa 8abd efdd 553d
00000050: 2e84 823d 2c12 2c3d 07fe 8d3d 9084 f63b
00000060: 4e92 393c 02fb dc3c 9184 77bd 1b3b 693d
00000070: ae65 ca3c 58ed 953c 02d9 963d 27ee 35bd
00000080: 2d0d ca3c 94fc 0c3d 13a1 4abd c06b 97bc
00000090: cab5 5cbc fa6e 5d3d fc17 be3d 46d9 b73b
000000a0: 9e8c cd3d d2d6 49bd c4ab e5bb 109a 7f3c
000000b0: 88b1 063d c3bd c2bd e399 ed3c 52e2 813d
000000c0: b6b2 17be cfeb 0e3d 3082 b03c c1f7 763c
000000d0: f0b0 bebd e6fd efbc 99cb 183c 6a0d 3dbc
000000e0: a5d6 debb 5783 703d 1046 693c 67c0 e03d
000000f0: 8ff4 813e a231 29bd 0748 c2bd 838f 443d
00000100: 0de7 873d f7d1 08bd eb3e 6ebd 9b05 a5bd
00000110: 6e11 9b3d f07a f9bd 1f14 053d 9045 353d
00000120: c755 d73d b4a2 4abd af78 f23d 2bee 1d3e
00000130: 98ff 00bc 31bc 9f3c 9244 393d b1f0 e33c
00000140: ab8e f4bc 1354 1f3d c627 eb3d 074d 353e
00000150: e6d2 8f3e 4aa0 9d3d f788 dcbc cf88 8d3c
00000160: 0491 4f3e a608 433d c667 9ebd 1524 ddbd
00000170: 48a7 b5bd 5c37 da3d f92b 66bd e491 013e
00000180: 71ab ea3c 2917 373e f6d1 bb3c 9bb5 5abd
00000190: c0a0 573c d0c2 003d 8ef2 e9ba dde2 27be
000001a0: a729 7b3e 6c2a f6ba 69ff 023e 05e2 2cbb
000001b0: 49dc e6bc 1ec9 fa3d fb4f 35be 0f73 1e3e
000001c0: 6985 343c 2363 5bbd b9c9 a53b 831a 3d3c
000001d0: 103f 843e b96b 61bd 49df a3ba 7b2e e7bc

fc2.weight f4 [84, 120]
-0.13155009 -0.012943137 0.056848273 0.06056561 -0.0755173 0.08702186 -0.06145423 0.017207671
0.13092022 0.1100753 -0.023420049 0.08878729 0.10196247 0.0029455072 0.15699343 0.09941046
0.09414895 0.024671266 -0.008103502 -0.037712038 0.05374494 -0.021830482 -0.09745862 -0.09894134
-0.014897498 -0.08611101 0.016867073 0.1355207 -0.12139767 0.022322001 0.051112387 0.01542198
-0.10755769 0.08141555 0.014455832 -0.08599132 -0.010920135 -0.055419788 0.09720379 -0.040413033
0.09665551 0.05118893 0.07424047 -0.06591988 0.007965051 0.004809835 0.035504226 0.062074043
0.07563846 0.13151902 -0.060307063 -0.1300013 0.019105274 0.002743657 -0.09900242 -0.06890825
-0.039679542 0.015066971 -0.0038180153 0.054533314 -0.041603018 0.10929644 -0.037290677 -0.045233313
-0.081922844 -0.08262295 -0.034629937 -0.09463612 0.119306974 -0.097775206 -0.03877887 -0.043493114
-0.04132115 -0.0896836 0.064790554 -0.02447204 0.05502409 -0.05157955 -0.04557982 0.044445705
-0.120030746 0.028688205 0.07379417 0.010490054 -0.04164401 -0.05998715 -0.09138371 -0.01997597
-0.0014782138 0.13076963 0.061795857 -0.042059064 -0.09509041 0.08527172 -0.047498483 0.13739878
0.08634246 -0.048425578 0.10727371 -0.085912086 0.09046527 -0.03728259 0.038146738 -0.10025069
-0.00844142 -0.07692088 0.0978049 -0.05962418 -0.062024377 0.04165345 0.042960238 0.021946322
-0.009324414 -0.0063815247 -0.0044473293 0.03424947 0.059112895 0.18647672 0.019797318 0.0439628
-0.020733805 0.08699132 0.05234245 0.061778687 0.080807954 -0.04868177 -0.058604296 0.057042245
0.04459706 -0.09751527 -0.010051088 -0.06055017 0.052707147 0.055305667 -0.09267307 -0.065897875
-0.0008470136 -0.055907004 0.08451117 -0.010055976 -0.04802993 -0.07331171 -0.017845374 -0.10659448
0.04220091 0.06417964 0.058889028 0.04254223 -0.13712122 0.046299916 -0.044991463 -0.039205287
-0.016323315 0.06851251 -0.01732506 0.05740319 -0.02731236 -0.066529244 -0.10302468 -0.052813906
-0.010321109 0.043563653 -0.013517619 -0.068587914 0.028298808 -0.0017112601 -0.07486912 -0.010336571
0.01890232 0.059360262 -0.09215114 -0.0054866583 -0.069376245 -0.07837218 0.028350657 0.014386679
-0.07663806 0.0074861054 0.014864305 -0.05742652 0.00456014 0.04112926 -0.053021125 -0.008150724
-0.03489152 0.06540563 0.041379593 0.026143681 -0.045354214 0.011942933 -0.07651325 -0.009345879
0.04847926 -0.021485887 -0.07960301 0.08154555 -0.09326639 -0.092737965 -0.110735394 0.01831679
-0.05784446 0.10089717 0.026149407 0.06507206 0.061954945 -0.0019329861 0.091077276 -0.026093218
0.050125524 -0.036169827 0.017332993 -0.052096892 -0.06451663 0.037548948 -0.04578274 -0.062295504
0.056034174 0.090740256 -0.05285392 -0.010130563 0.065074526 -0.043824166 0.0015676992 -0.027601756
0.08536496 -0.0668759 -0.0396481 -0.06799567 -0.06022518 0.043866426 0.016888954 -0.052839518
0.07212117 0.02259844 -0.03192229 -0.032237064 0.035772417 -0.10485573 0.008507426 -0.08356317
0.102035776 0.08139175 0.024826216 0.078474976 -0.04960234 -0.029374642 -0.015886385 0.055040516
-0.007399 -0.11304982 0.087881245 -0.14643544 0.1720871 0.007122809 0.07204755 0.08021226
00000000: 11b5 06be 740f 54bc bcd9 683d a513 783d
00000010: d0a8 9abd 8438 b23d 6eb7 7bbd 1af7 8c3c
00000020: f30f 063e 296f e13d 67db bfbc 1cd6 b53d
00000030: b3d1 d03d 6909 413b e3c2 203e b697 cb3d
00000040: 2ad1 c03d 651b ca3c 8dc4 04bc f077 1abd
00000050: a723 5c3d d7d5 b2bc 6398 c7bd c2a1 cabd
00000060: a314 74bc f85a b0bd d12c 8a3c f0c5 0a3e
00000070: 579f f8bd a1dc b63c 395b 513d 79ac 7c3c
00000080: 3547 dcbd 32bd a63d 27d8 6c3c 381c b0bd
00000090: 5eea 32bc dcff 62bd c812 c73d 2388 25bd
000000a0: 53f3 c53d 7cab 513d 630b 983d 0101 87bd
000000b0: d87f 023c d29b 9d3b e16c 113d 5a41 7e3d
000000c0: 56e8 9a3d ecac 063e 8a04 77bd 101f 05be
000000d0: aa82 9c3c edce 333b c8c1 cabd c51f 8dbd
000000e0: 0487 22bd 75db 763c ab37 7abb 535e 5f3d
000000f0: ed67 2abd d0d6 df3d 1cbe 18bd 9146 39bd
00000100: 2ac7 a7bd 3936 a9bd 1fd8 0dbd 95d0 c1bd
00000110: 3757 f43d 5e3e c8bd 98d6 1ebd d625 32bd
00000120: 5e40 29bd 09ac b7bd e9b0 843d 9679 c8bc
00000130: f160 613d 1445 53bd e8b1 3abd b30c 363d
00000140: aed2 f5bd 8703 eb3c 6621 973d 7ade 2b3c
00000150: e992 2abd 16b5 75bd 6227 bbbd a5a4 a3bc
00000160: a0c0 c1ba 79e8 053e a71d 7d3d 2046 2cbd
00000170: c3be c2bd f1a2 ae3d c58d 42bd 44b2 0c3e
00000180: 51d4 b03d e659 46bd 52b2 db3d adf2 afbd
00000190: db45 b93d a1b5 18bd c13f 1c3d 3c50 cdbd
000001a0: e24d 0abc b288 9dbd ef4d c83d 7c38 74bd
000001b0: 460d 7ebd cf9c 2a3d 13f7 2f3d c6c8 b33c
000001c0: 6dc5 18bc 1c1c d1bb e7ba 91bb 2c49 0c3d
000001d0: 5d20 723d c1f3 3e3e fc2d a23c 5612 343d
000001e0: f1d9 a9bc 8128 b23d 0965 563d a60b 7d3d
000001f0: a47e a53d 8966 47bd 0f0b 70bd 21a5 693d
00000200: 68ab 363d 16b6 c7bd 52ad 24bc 7403 78bd
00000210: 73e3 573d 3288 623d 61cb bdbd 77f5 86bd
00000220: 1f0a 5eba befe 64bd 3114 ad3d d2c1 24bc
00000230: 08bb 44bd 7324 96bd 7630 92bc 354e dabd
00000240: ddda 2c3d 9d70 833d 9f35 713d c340 2e3d
00000250: 8169 0cbe fba4 3d3d f848 38bd b995 20bd
00000260: 79b8 85bc 4950 8c3d 49ed 8dbc 9b1f 6b3d
00000270: 2cbe dfbc 7c40 88bd 9afe d2bd 6553 58bd
00000280: de19 29bc cd6f 323d 0179 5dbc d277 8cbd
00000290: e7d2 e73c 5c4c e0ba fb54 99bd b95a 29bc
000002a0: 0ad9 9a3c bf23 733d bdb9 bcbd 6dc9 b3bb
000002b0: 2215 8ebd 9881 a0bd a33f e83c 1bb6 6b3c
000002c0: 6af4 9cbd 014e f53b 6a89 733c 1238 6bbd
000002d0: 3a6d 953b 2877 283d ae2c 59bd 9d8a 05bc
000002e0: 69ea 0ebd 63f3 853d a67d 293d 462b d63c
000002f0: 57c5 39bd 4bac 433c fbb2 9cbd 751f 19bc
00000300: 3092 463d 2c03 b0bc e706 a3bd 5a01 a73d
00000310: 7302 bfbd 67ed bdbd 3dc9 e2bd 180d 963c
00000320: 50ee 6cbd 2da3 ce3d 4837 d63c 8044 853d
00000330: 78c4 7d3d 405c fdba b986 ba3d 72c1 d5bc
00000340: 6c50 4d3d d026 14bd ecfd 8d3c 8d63 55bd
00000350: 4b21 84bd edcc 193d af86 3bbd 9229 7fbd
00000360: 1784 653d 07d6 b93d 5a7d 58bd a9fa 25bc
00000370: cb45 853d f880 33bd 427b cd3a 141d e2bc
00000380: d3d3 ae3d 3bf6 88bd 0c66 22bd 5041 8bbd
00000390: aeae 76bd 48ad 333d b45a 8a3c 406e 58bd
000003a0: 44b4 933d 5d20 b93c f2c0 02bd 030b 04bd
000003b0: 1986 123d 9abe d6bd bb62 0b3c 2b23 abbd
000003c0: 22f8 d03d b8b0 a63d 5960 cb3c 7db7 a03d
000003d0: d32b 4bbd 17a3 f0bc 2a24 82bc 2a72 613d
000003e0: 5073 f2bb aa86 e7bd 15fb b33d 2cf3 15be
000003f0: 9a37 303e 7466 e93b aa8d 933d 5346 a43d

fc2.bias f4 [84]
0.15944628 0.09467965 -0.014571414 -0.091768615 0.0762183 -0.067778915 -0.09829346 0.28618273
0.31034154 -0.054868255 0.2752244 0.18718089 -0.10965497 -0.055701327 0.060496893 0.07396991
-0.037380025 0.35406947 0.06374384 -0.039137393 -0.037239686 -0.06235143 -0.016141275 0.4324224
-0.12838265 -0.09879152 -0.0132541945 -0.06204217 -0.01900145 0.10102352 0.3665343 0.13053057
-0.10295576 0.42111626 0.061973926 -0.01707937 0.22171865 0.20561494 -0.056487747 -0.005173263
0.061868403 0.058527958 0.084131196 -0.10817708 -0.013851295 0.0566266 0.23881239 -0.00071566954
0.03234121 -0.040095564 -0.020573178 -0.10847614 -0.071576476 -0.010986417 -0.092611745 -0.076378234
0.0150389075 0.043561623 -0.17163418 -0.05226893 0.054909557 0.30601636 0.17103066 0.093591064
-0.045697194 -0.009332272 0.058992557 -0.03208197 -0.04089621 0.23881048 0.16496526 -0.17100625
-0.06619911 -0.05270671 0.023130042 -0.03988043 0.07349613 0.17470613 0.14756297 0.1801989
0.27335235 -0.058991484 -0.11704205 0.13302498
00000000: e345 233e 68e7 c13d f1bc 6ebc 2ff1 bbbd
00000010: 5718 9c3d accf 8abd 154e c9bd 8b86 923e
00000020: 16e5 9e3e 89bd 60bd 36ea 8c3e 59ac 3f3e
00000030: c992 e0bd 1327 64bd 97cb 773d 897d 973d
00000040: cc1b 19bd 9848 b53e 218c 823d 884e 20bd
00000050: a488 18bd 3764 7fbd b53a 84bc 7866 dd3e
00000060: be76 03be 3553 cabd 1f28 59bc ee1f 7ebd
00000070: eea8 9bbc 6be5 ce3d 62aa bb3e cea9 053e
00000080: 78da d2bd 8d9c d73e 5fd8 7d3d 09ea 8bbc
00000090: 370a 633e b98c 523e b25f 67bd 7a84 a9bb
000000a0: b969 7d3d 03bb 6f3d fa4c ac3d f28b ddbd
000000b0: 8bf0 62bc 4bf1 673d 3c8b 743e c59b 3bba
000000c0: 3778 043d 3f3b 24bd 1589 a8bc bd28 debd
000000d0: b096 92bd 5f00 34bc 3aab bdbd 316c 9cbd
000000e0: c065 763c ac6d 323d dfc0 2fbe f217 56bd
000000f0: d8e8 603d 2dae 9c3e a922 2f3e acac bf3d
00000100: fb2c 3bbd 63e6 18bc 2ea2 713d 6268 03bd
00000110: c982 27bd bc8a 743e a7ec 283e 431c 2fbe
00000120: 6693 87bd fee2 57bd 377b bd3c a959 23bd
00000130: 2485 963d 2ae6 323e bf1a 173e 0f86 383e
00000140: d7f4 8b3e 0ea1 71bd beb3 efbd b337 083e

fc3.weight f4 [10, 84]
0.35627484 -0.013724181 -0.022555385 -0.075827494 -0.0022848477 -0.058805708 -0.06737462 0.16878194
-0.25392243 -0.003092465 -0.11278382 0.13896425 -0.0011573217 0.16822702 0.005105349 -0.1276122
0.014765544 -0.103752166 -0.045722768 0.003535945 -0.018003596 0.1503287 -0.09366766 -0.22961341
0.23887824 0.024636177 0.09371254 0.16751288 0.006883247 0.08021605 0.21492523 0.2939825
0.21457964 0.106711276 -0.22842525 0.052721955 -0.0850528 -0.12482421 0.09839384 -0.0028317878
0.100952454 -0.010399902 0.019159008 0.23175834 -0.024365192 0.055702113 -0.13996677 0.03793784
0.10089096 -0.05953347 -0.029598301 -0.053261567 0.067534804 0.07406603 -0.019982863 -0.08199991
-0.13396652 0.0048610778 0.2676496 -0.016747933 0.004264855 -0.29260495 0.12906174 -0.0026688953
-0.09501619 0.12736024 -0.009882855 -0.06664769 0.05158323 -0.12889409 0.18834515 -0.004563385
0.19608165 0.03694744 0.010157473 -0.07700385 -0.01833072 0.15383907 0.1615752 0.24857719
-0.121956095 -0.06737289 0.25367135 -0.14969759 -0.084964186 -0.06984803 -0.040882137 0.04609099
0.06214995 0.09788703 0.06320462 0.15274717 -0.20695007 0.009370695 -0.07138165 -0.02181006
0.092297815 -0.15395592 -0.03330857 -0.3389534 0.087352365 -0.18391207 0.091824524 0.026885608
0.060505245 0.16280086 0.09864313 -0.012621645 0.018334419 -0.010728333 -0.04215472 0.224481
-0.04304617 -0.20357062 -0.17768572 0.07523316 0.2602768 -0.2595833 -0.07802784 0.033239413
-0.029313471 -0.042163756 -0.107885264 -0.040284988 0.2761752 0.006687848 0.057280302 0.034476887
0.10168386 0.0020206855 0.19053812 -0.11725881 -0.010462657 0.06659641 -0.28206882 0.0051447893
0.25206268 0.18039194 -0.06662244 0.11615149 0.0009885323 -0.21280958 0.20452993 0.03832381
-0.020743685 0.044406936 -0.19705276 -0.10263392 -0.030616602 0.27593368 0.2935238 0.18322217
-0.058181792 -0.2382689 -0.08735764 -0.09598779 0.28833127 0.109704144 0.15904093 -0.016550936
-0.019144986 -0.24257004 -0.30222332 -0.122253664 -0.11128786 0.08865908 -0.1038327 -0.12885234
0.20440331 -0.083945535 -0.0190525 0.03142479 0.045405857 0.08720099 -0.26527986 -0.2390117
0.14338583 -0.019583289 0.017983742 0.0411335 0.07990852 0.012737621 0.020010555 0.18815392
0.05481042 0.15201493 0.003536874 0.08459353 -0.025734333 -0.059378795 -0.06908715 0.24801002
0.11404873 0.021644428 0.07652582 -0.06761769 -0.03053451 0.23749943 0.07601295 0.126385
-0.089986525 0.17500792 0.19579342 -0.09571575 0.08764351 0.015766045 -0.070441835 -0.027535962
0.057277434 -0.124457255 -0.097874336 0.112112895 0.20360735 -0.2315953 0.07256502 -0.04022359
0.07700702 -0.03661479 0.26195714 0.048616886 -0.07438001 -0.181851 0.013412347 0.0116820065
-0.1664573 -0.009740278 0.14238703 0.025605425 0.24576838 -0.15603302 0.18765646 0.023711497
-0.07424525 -0.12540768 -0.16095364 0.07833992 -0.08774318 -0.2128771 -0.01768385 -0.06862269
-0.07858381 0.049552772 -0.13217965 -0.08947485 0.014081552 0.33731246 0.1815657 0.1432029
0.2527424 -0.11820778 0.035447083 -0.11470882 -0.1298572 -0.07188773 -0.06626 -0.12298431
00000000: a869 b63e 63db 60bc 12c6 b8bc 724b 9bbd
00000010: 62bd 15bb 41de 70bd b4fb 89bd 2cd5 2c3e
00000020: 1f02 82be f4aa 4abb 34fb e6bd a54c 0e3e
00000030: 46b1 97ba b443 2c3e c54a a73b c6ac 02be
00000040: 2eeb 713c 047c d4bd cc47 3bbd 50bb 673b
00000050: 477c 93bc c4ef 193e d5d4 bfbd c71f 6bbe
00000060: 7f9c 743e cfd1 c93c 5cec bf3d 7f88 2b3e
00000070: dc8c e13b 5048 a43d 5c15 5c3e e084 963e
00000080: c4ba 5b3e 718b da3d 4fe8 69be faf2 573d
00000090: 2a30 aebd d6a3 ffbd b682 c93d 8495 39bb
000000a0: 29c0 ce3d 5a64 2abc 5af3 9c3c 0f52 6d3e
000000b0: 8399 c7bc e627 643d 7353 0fbe b564 1b3d
000000c0: eb9f ce3d 5ed9 73bd 2378 f2bc cd28 5abd
000000d0: b04f 8a3d eeaf 973d 1ab3 a3bc 92ef a7bd
000000e0: 852e 09be ad49 9f3b 5e09 893e f632 89bc
000000f0: 32c0 8b3b 51d0 95be c328 043e a2e8 2ebb
00000100: d997 c2bd b96a 023e b3eb 21bc 967e 88bd
00000110: f048 533d d0fc 03be 8ddd 403e 7388 95bb
00000120: a1c9 483e 3356 173d 886b 263c 32b4 9dbd
00000130: 4e2a 96bc fd87 1d3e f873 253e 058b 7e3e
00000140: 1ec4 f9bd ccfa 89bd 36e1 813e 534a 19be
00000150: b401 aebd 7c0c 8fbd 0774 27bd e8c9 3c3d
00000160: f290 7e3d ff78 c83d 6c71 813d c169 1c3e
00000170: b8ea 53be 8b87 193c 8b30 92bd 03ab b2bc
00000180: a306 bd3d 9fa6 1dbe 916e 08bd 4d8b adbe
00000190: cce5 b23d 7253 3cbe 7f0e bc3d 353f dc3c
000001a0: 59d4 773d 45b5 263e 6905 ca3d 04cb 4ebc
000001b0: 1032 963c e4c5 2fbc 6daa 2cbd 59de 653e
000001c0: 2e51 30bd d174 50be 3ff3 35be d813 9a3d
000001d0: 0043 853e 1ae8 84be 0fcd 9fbd 0d26 083d
000001e0: ce22 f0bc e7b3 2cbd f3f2 dcbd df01 25bd
000001f0: d666 8d3e bc25 db3b c09e 6a3d a337 0d3d
00000200: a13f d03d 7a6d 043b 6d1c 433e 6325 f0bd
00000210: 906b 2bbc b363 883d 536b 90be 9f95 a83b
00000220: 5c0e 813e aab8 383e 5971 88bd d5e0 ed3d
00000230: a491 813a c1ea 59be 4b70 513e 6df9 1c3d
00000240: a9ee a9bc 0ce4 353d 33c8 49be bc31 d2bd
00000250: abcf fabc 2e47 8d3e c048 963e 989e 3b3e
00000260: 0850 6ebd c3fc 73be 90e8 b2bd 3f95 c4bd
00000270: 28a0 933e 91ac e03d a0db 223e d495 87bc
00000280: f2d5 9cbc 4864 78be 04bd 9abe 2160 fabd
00000290: e4ea e3bd e492 b53d 3da6 d4bd def1 03be
000002a0: 1a4f 513e a3eb abbd fd13 9cbc 48b7 003d
000002b0: 7efb 393d 6f96 b23d c3d2 87be 7cbf 74be
000002c0: bcd3 123e 226d a0bc a452 933c 9a7b 283d
000002d0: 14a7 a33d 74b1 503c 2ded a33c 6cab 403e
000002e0: e480 603d cda9 1b3e e6ca 673b 5f3f ad3d
000002f0: cfd0 d2bc 2e37 73bd 907d 8dbd 57f6 7d3e
00000300: 6192 e93d a84f b13c 92b9 9c3d 257b 8abd
00000310: 8223 fabc 0d33 733e adac 9b3d 126b 013e
00000320: db4a b8bd 4735 333e 127e 483e 9e06 c4bd
00000330: 717e b33d cb27 813c cf43 90bd 1993 e1bc
00000340: be9b 6a3d 72e3 febd 5772 c8bd 729b e53d
00000350: 727e 503e 5127 6dbe f89c 943d 7ec1 24bd
00000360: dbb5 9d3d 64f9 15bd 3f1f 863e 8022 473d
00000370: 8c54 98bd 2637 3abe 76bf 5b3c e365 3f3c
00000380: c873 2abe b095 1fbc e8cd 113e 78c2 d13c
00000390: b5aa 7b3e 1fc7 1fbe 0429 403e 9d3e c23c
000003a0: e50d 98bd df6a 00be 08d1 24be ae70 a03d
000003b0: b2b2 b3bd 74fc 59be b9dd 90bc 0e8a 8cbd
000003c0: 8cf0 a0bd d9f7 4a3d 1a5a 07be 973e b7bd
000003d0: 4fb6 663c 38b4 ac3e 5cec 393e c8a3 123e
000003e0: 7467 813e ec16 f2bd f630 113d 75ec eabd
000003f0: 49f9 04be e039 93bd 53b3 87bd 33df fbbd

fc3.bias f4 [10]
-0.41814393 -0.47345415 0.07576401 0.2380238 0.5905204 -0.24099346 0.48305675 -0.24652834
0.21772929 -0.3719116
00000000: f616 d6be 9568 f2be 292a 9b3d 83bc 733e
00000010: 582c 173f fdc6 76be 3753 f73e ed71 7cbe
00000020: 6df4 5e3e 326b bebe
